Model: "sequential"
+--------------------------------------------------------------------------+
| Layer (type)                    | Output Shape           |       Param # |
|---------------------------------+------------------------+---------------|
| bidirectional (Bidirectional)   | (None, 100, 128)       |        39,936 |
|---------------------------------+------------------------+---------------|
| dropout (Dropout)               | (None, 100, 128)       |             0 |
|---------------------------------+------------------------+---------------|
| bidirectional_1 (Bidirectional) | (None, 64)             |        41,216 |
|---------------------------------+------------------------+---------------|
| dropout_1 (Dropout)             | (None, 64)             |             0 |
|---------------------------------+------------------------+---------------|
| dense (Dense)                   | (None, 32)             |         2,080 |
|---------------------------------+------------------------+---------------|
| dense_1 (Dense)                 | (None, 8)              |           264 |
+--------------------------------------------------------------------------+
 Total params: 83,496 (326.16 KB)
 Trainable params: 83,496 (326.16 KB)
 Non-trainable params: 0 (0.00 B)

